{"format": "graph-model", "generatedBy": "2.5.0", "convertedBy": "TensorFlow.js Converter v3.8.0", "signature": {"inputs": {"module_wrapper_input": {"name": "module_wrapper_input:0", "dtype": "DT_FLOAT", "tensorShape": {"dim": [{"size": "-1"}, {"size": "4"}]}}}, "outputs": {"module_wrapper_7": {"name": "Identity:0", "dtype": "DT_FLOAT", "tensorShape": {"dim": [{"size": "-1"}, {"size": "6"}]}}}}, "modelTopology": {"node": [{"name": "StatefulPartitionedCall/sequential/module_wrapper/dense/MatMul/ReadVariableOp", "op": "Const", "attr": {"dtype": {"type": "DT_FLOAT"}, "value": {"tensor": {"dtype": "DT_FLOAT", "tensorShape": {"dim": [{"size": "4"}, {"size": "4"}]}}}}}, {"name": "StatefulPartitionedCall/sequential/module_wrapper/dense/BiasAdd/ReadVariableOp", "op": "Const", "attr": {"value": {"tensor": {"dtype": "DT_FLOAT", "tensorShape": {"dim": [{"size": "4"}]}}}, "dtype": {"type": "DT_FLOAT"}}}, {"name": "StatefulPartitionedCall/sequential/module_wrapper_1/dense_1/MatMul/ReadVariableOp", "op": "Const", "attr": {"value": {"tensor": {"dtype": "DT_FLOAT", "tensorShape": {"dim": [{"size": "4"}, {"size": "64"}]}}}, "dtype": {"type": "DT_FLOAT"}}}, {"name": "StatefulPartitionedCall/sequential/module_wrapper_1/dense_1/BiasAdd/ReadVariableOp", "op": "Const", "attr": {"dtype": {"type": "DT_FLOAT"}, "value": {"tensor": {"dtype": "DT_FLOAT", "tensorShape": {"dim": [{"size": "64"}]}}}}}, {"name": "StatefulPartitionedCall/sequential/module_wrapper_2/dense_2/MatMul/ReadVariableOp", "op": "Const", "attr": {"value": {"tensor": {"dtype": "DT_FLOAT", "tensorShape": {"dim": [{"size": "64"}, {"size": "64"}]}}}, "dtype": {"type": "DT_FLOAT"}}}, {"name": "StatefulPartitionedCall/sequential/module_wrapper_2/dense_2/BiasAdd/ReadVariableOp", "op": "Const", "attr": {"value": {"tensor": {"dtype": "DT_FLOAT", "tensorShape": {"dim": [{"size": "64"}]}}}, "dtype": {"type": "DT_FLOAT"}}}, {"name": "StatefulPartitionedCall/sequential/module_wrapper_3/dense_3/MatMul/ReadVariableOp", "op": "Const", "attr": {"dtype": {"type": "DT_FLOAT"}, "value": {"tensor": {"dtype": "DT_FLOAT", "tensorShape": {"dim": [{"size": "64"}, {"size": "64"}]}}}}}, {"name": "StatefulPartitionedCall/sequential/module_wrapper_3/dense_3/BiasAdd/ReadVariableOp", "op": "Const", "attr": {"dtype": {"type": "DT_FLOAT"}, "value": {"tensor": {"dtype": "DT_FLOAT", "tensorShape": {"dim": [{"size": "64"}]}}}}}, {"name": "StatefulPartitionedCall/sequential/module_wrapper_4/dense_4/MatMul/ReadVariableOp", "op": "Const", "attr": {"value": {"tensor": {"dtype": "DT_FLOAT", "tensorShape": {"dim": [{"size": "64"}, {"size": "64"}]}}}, "dtype": {"type": "DT_FLOAT"}}}, {"name": "StatefulPartitionedCall/sequential/module_wrapper_4/dense_4/BiasAdd/ReadVariableOp", "op": "Const", "attr": {"value": {"tensor": {"dtype": "DT_FLOAT", "tensorShape": {"dim": [{"size": "64"}]}}}, "dtype": {"type": "DT_FLOAT"}}}, {"name": "StatefulPartitionedCall/sequential/module_wrapper_5/dense_5/MatMul/ReadVariableOp", "op": "Const", "attr": {"dtype": {"type": "DT_FLOAT"}, "value": {"tensor": {"dtype": "DT_FLOAT", "tensorShape": {"dim": [{"size": "64"}, {"size": "64"}]}}}}}, {"name": "StatefulPartitionedCall/sequential/module_wrapper_5/dense_5/BiasAdd/ReadVariableOp", "op": "Const", "attr": {"dtype": {"type": "DT_FLOAT"}, "value": {"tensor": {"dtype": "DT_FLOAT", "tensorShape": {"dim": [{"size": "64"}]}}}}}, {"name": "StatefulPartitionedCall/sequential/module_wrapper_6/dense_6/MatMul/ReadVariableOp", "op": "Const", "attr": {"dtype": {"type": "DT_FLOAT"}, "value": {"tensor": {"dtype": "DT_FLOAT", "tensorShape": {"dim": [{"size": "64"}, {"size": "64"}]}}}}}, {"name": "StatefulPartitionedCall/sequential/module_wrapper_6/dense_6/BiasAdd/ReadVariableOp", "op": "Const", "attr": {"value": {"tensor": {"dtype": "DT_FLOAT", "tensorShape": {"dim": [{"size": "64"}]}}}, "dtype": {"type": "DT_FLOAT"}}}, {"name": "StatefulPartitionedCall/sequential/module_wrapper_7/dense_7/MatMul/ReadVariableOp", "op": "Const", "attr": {"value": {"tensor": {"dtype": "DT_FLOAT", "tensorShape": {"dim": [{"size": "64"}, {"size": "6"}]}}}, "dtype": {"type": "DT_FLOAT"}}}, {"name": "StatefulPartitionedCall/sequential/module_wrapper_7/dense_7/BiasAdd/ReadVariableOp", "op": "Const", "attr": {"value": {"tensor": {"dtype": "DT_FLOAT", "tensorShape": {"dim": [{"size": "6"}]}}}, "dtype": {"type": "DT_FLOAT"}}}, {"name": "module_wrapper_input", "op": "Placeholder", "attr": {"dtype": {"type": "DT_FLOAT"}, "shape": {"shape": {"dim": [{"size": "-1"}, {"size": "4"}]}}}}, {"name": "StatefulPartitionedCall/sequential/module_wrapper/dense/BiasAdd", "op": "_FusedMatMul", "input": ["module_wrapper_input", "StatefulPartitionedCall/sequential/module_wrapper/dense/MatMul/ReadVariableOp", "StatefulPartitionedCall/sequential/module_wrapper/dense/BiasAdd/ReadVariableOp"], "device": "/device:CPU:0", "attr": {"epsilon": {"f": 0.0}, "T": {"type": "DT_FLOAT"}, "fused_ops": {"list": {"s": ["Qmlhc0FkZA=="]}}, "num_args": {"i": "1"}, "transpose_b": {"b": false}, "transpose_a": {"b": false}}}, {"name": "StatefulPartitionedCall/sequential/module_wrapper_1/dense_1/LeakyRelu", "op": "_FusedMatMul", "input": ["StatefulPartitionedCall/sequential/module_wrapper/dense/BiasAdd", "StatefulPartitionedCall/sequential/module_wrapper_1/dense_1/MatMul/ReadVariableOp", "StatefulPartitionedCall/sequential/module_wrapper_1/dense_1/BiasAdd/ReadVariableOp"], "device": "/device:CPU:0", "attr": {"transpose_b": {"b": false}, "transpose_a": {"b": false}, "epsilon": {"f": 0.0}, "leakyrelu_alpha": {"f": 0.2}, "fused_ops": {"list": {"s": ["Qmlhc0FkZA==", "TGVha3lSZWx1"]}}, "num_args": {"i": "1"}, "T": {"type": "DT_FLOAT"}}}, {"name": "StatefulPartitionedCall/sequential/module_wrapper_2/dense_2/LeakyRelu", "op": "_FusedMatMul", "input": ["StatefulPartitionedCall/sequential/module_wrapper_1/dense_1/LeakyRelu", "StatefulPartitionedCall/sequential/module_wrapper_2/dense_2/MatMul/ReadVariableOp", "StatefulPartitionedCall/sequential/module_wrapper_2/dense_2/BiasAdd/ReadVariableOp"], "device": "/device:CPU:0", "attr": {"epsilon": {"f": 0.0}, "transpose_a": {"b": false}, "transpose_b": {"b": false}, "fused_ops": {"list": {"s": ["Qmlhc0FkZA==", "TGVha3lSZWx1"]}}, "leakyrelu_alpha": {"f": 0.2}, "num_args": {"i": "1"}, "T": {"type": "DT_FLOAT"}}}, {"name": "StatefulPartitionedCall/sequential/module_wrapper_3/dense_3/LeakyRelu", "op": "_FusedMatMul", "input": ["StatefulPartitionedCall/sequential/module_wrapper_2/dense_2/LeakyRelu", "StatefulPartitionedCall/sequential/module_wrapper_3/dense_3/MatMul/ReadVariableOp", "StatefulPartitionedCall/sequential/module_wrapper_3/dense_3/BiasAdd/ReadVariableOp"], "device": "/device:CPU:0", "attr": {"epsilon": {"f": 0.0}, "transpose_a": {"b": false}, "fused_ops": {"list": {"s": ["Qmlhc0FkZA==", "TGVha3lSZWx1"]}}, "num_args": {"i": "1"}, "leakyrelu_alpha": {"f": 0.2}, "transpose_b": {"b": false}, "T": {"type": "DT_FLOAT"}}}, {"name": "StatefulPartitionedCall/sequential/module_wrapper_4/dense_4/LeakyRelu", "op": "_FusedMatMul", "input": ["StatefulPartitionedCall/sequential/module_wrapper_3/dense_3/LeakyRelu", "StatefulPartitionedCall/sequential/module_wrapper_4/dense_4/MatMul/ReadVariableOp", "StatefulPartitionedCall/sequential/module_wrapper_4/dense_4/BiasAdd/ReadVariableOp"], "device": "/device:CPU:0", "attr": {"T": {"type": "DT_FLOAT"}, "fused_ops": {"list": {"s": ["Qmlhc0FkZA==", "TGVha3lSZWx1"]}}, "transpose_b": {"b": false}, "num_args": {"i": "1"}, "leakyrelu_alpha": {"f": 0.2}, "transpose_a": {"b": false}, "epsilon": {"f": 0.0}}}, {"name": "StatefulPartitionedCall/sequential/module_wrapper_5/dense_5/LeakyRelu", "op": "_FusedMatMul", "input": ["StatefulPartitionedCall/sequential/module_wrapper_4/dense_4/LeakyRelu", "StatefulPartitionedCall/sequential/module_wrapper_5/dense_5/MatMul/ReadVariableOp", "StatefulPartitionedCall/sequential/module_wrapper_5/dense_5/BiasAdd/ReadVariableOp"], "device": "/device:CPU:0", "attr": {"epsilon": {"f": 0.0}, "transpose_b": {"b": false}, "T": {"type": "DT_FLOAT"}, "transpose_a": {"b": false}, "num_args": {"i": "1"}, "fused_ops": {"list": {"s": ["Qmlhc0FkZA==", "TGVha3lSZWx1"]}}, "leakyrelu_alpha": {"f": 0.2}}}, {"name": "StatefulPartitionedCall/sequential/module_wrapper_6/dense_6/LeakyRelu", "op": "_FusedMatMul", "input": ["StatefulPartitionedCall/sequential/module_wrapper_5/dense_5/LeakyRelu", "StatefulPartitionedCall/sequential/module_wrapper_6/dense_6/MatMul/ReadVariableOp", "StatefulPartitionedCall/sequential/module_wrapper_6/dense_6/BiasAdd/ReadVariableOp"], "device": "/device:CPU:0", "attr": {"epsilon": {"f": 0.0}, "transpose_b": {"b": false}, "num_args": {"i": "1"}, "transpose_a": {"b": false}, "fused_ops": {"list": {"s": ["Qmlhc0FkZA==", "TGVha3lSZWx1"]}}, "leakyrelu_alpha": {"f": 0.2}, "T": {"type": "DT_FLOAT"}}}, {"name": "StatefulPartitionedCall/sequential/module_wrapper_7/dense_7/BiasAdd", "op": "_FusedMatMul", "input": ["StatefulPartitionedCall/sequential/module_wrapper_6/dense_6/LeakyRelu", "StatefulPartitionedCall/sequential/module_wrapper_7/dense_7/MatMul/ReadVariableOp", "StatefulPartitionedCall/sequential/module_wrapper_7/dense_7/BiasAdd/ReadVariableOp"], "device": "/device:CPU:0", "attr": {"num_args": {"i": "1"}, "transpose_b": {"b": false}, "fused_ops": {"list": {"s": ["Qmlhc0FkZA=="]}}, "epsilon": {"f": 0.0}, "T": {"type": "DT_FLOAT"}, "transpose_a": {"b": false}}}, {"name": "Identity", "op": "Identity", "input": ["StatefulPartitionedCall/sequential/module_wrapper_7/dense_7/BiasAdd"], "attr": {"T": {"type": "DT_FLOAT"}}}], "library": {}, "versions": {"producer": 716}}, "weightsManifest": [{"paths": ["group1-shard1of1.bin"], "weights": [{"name": "StatefulPartitionedCall/sequential/module_wrapper/dense/MatMul/ReadVariableOp", "shape": [4, 4], "dtype": "float32"}, {"name": "StatefulPartitionedCall/sequential/module_wrapper/dense/BiasAdd/ReadVariableOp", "shape": [4], "dtype": "float32"}, {"name": "StatefulPartitionedCall/sequential/module_wrapper_1/dense_1/MatMul/ReadVariableOp", "shape": [4, 64], "dtype": "float32"}, {"name": "StatefulPartitionedCall/sequential/module_wrapper_1/dense_1/BiasAdd/ReadVariableOp", "shape": [64], "dtype": "float32"}, {"name": "StatefulPartitionedCall/sequential/module_wrapper_2/dense_2/MatMul/ReadVariableOp", "shape": [64, 64], "dtype": "float32"}, {"name": "StatefulPartitionedCall/sequential/module_wrapper_2/dense_2/BiasAdd/ReadVariableOp", "shape": [64], "dtype": "float32"}, {"name": "StatefulPartitionedCall/sequential/module_wrapper_3/dense_3/MatMul/ReadVariableOp", "shape": [64, 64], "dtype": "float32"}, {"name": "StatefulPartitionedCall/sequential/module_wrapper_3/dense_3/BiasAdd/ReadVariableOp", "shape": [64], "dtype": "float32"}, {"name": "StatefulPartitionedCall/sequential/module_wrapper_4/dense_4/MatMul/ReadVariableOp", "shape": [64, 64], "dtype": "float32"}, {"name": "StatefulPartitionedCall/sequential/module_wrapper_4/dense_4/BiasAdd/ReadVariableOp", "shape": [64], "dtype": "float32"}, {"name": "StatefulPartitionedCall/sequential/module_wrapper_5/dense_5/MatMul/ReadVariableOp", "shape": [64, 64], "dtype": "float32"}, {"name": "StatefulPartitionedCall/sequential/module_wrapper_5/dense_5/BiasAdd/ReadVariableOp", "shape": [64], "dtype": "float32"}, {"name": "StatefulPartitionedCall/sequential/module_wrapper_6/dense_6/MatMul/ReadVariableOp", "shape": [64, 64], "dtype": "float32"}, {"name": "StatefulPartitionedCall/sequential/module_wrapper_6/dense_6/BiasAdd/ReadVariableOp", "shape": [64], "dtype": "float32"}, {"name": "StatefulPartitionedCall/sequential/module_wrapper_7/dense_7/MatMul/ReadVariableOp", "shape": [64, 6], "dtype": "float32"}, {"name": "StatefulPartitionedCall/sequential/module_wrapper_7/dense_7/BiasAdd/ReadVariableOp", "shape": [6], "dtype": "float32"}]}]}